src/model.pkl (torch, 932183 bytes, 24 tensors)

fc1.fcConv.0.weight f4 [300, 32]
00000000: 8ec2 6abd 3516 b03d 6bff 92bc db3b eebd
00000010: 8550 f33d 127e 10be 9270 ebbb 8840 2e3e
00000020: ca82 f8bd f066 853d 3643 203e af45 253d
00000030: fac0 6cbe 1790 083e a101 43be bc65 d7bd
00000040: fd2e 75bd 85c1 1a3b 2fc2 9cbd 155f 133e
00000050: b894 223e 9f84 8db8 cc2a 0f3c eecb 79bd
00000060: 7e06 063e 4b48 973d f520 c43c 9653 043f
00000070: 6e75 c6be 8f60 36be 7bad 7d3e 23e6 2a3e
00000080: 4753 72be 0a1f bb3d 6e4b fd3d 395c aebe
00000090: 31ad 2a3e fb4f fb3d 866a b6bd 0706 883e
000000a0: d3cc 3f3e 0150 89be 7a39 413e 0188 09be
000000b0: 7ac1 523e 3280 88bd 1543 293d 0f74 10be
000000c0: d8dc e83c b40b 3dbd 42a4 b03d d1aa 5a3b
000000d0: 8bdf c43d 0e16 60be 8cb8 253e d679 aa3d
000000e0: 7f52 51be c7cd 1f3e b401 d6bd 56f1 933d
000000f0: e36d 8d3c 9468 43be a612 083d 2c61 293c
00000100: bda7 703d 1c06 2b3e a305 9bbd d22c 05be
00000110: 6fc2 e8bd 18ac 343d fa4d c93d d352 1e3e
00000120: 892b 353e 3597 92be 09f0 933d 2a1a 70be
00000130: c050 0e3d bc02 a53e 230b cc3d a56d cdbe
00000140: f21d 803d c0ab 953d f5cc e13d a7bb e1bd
00000150: b30e 0b3e 28ac 37bd f82d 9abd c5af 2fbe
00000160: 9291 bb3c 28f3 893d dc3b 203d 4947 313d
00000170: 094d 1b3d 0a8b e03d 71fd 02be a230 c6be
00000180: c420 d73d ab4a 6a3e e9b7 88be ffa5 d5be
00000190: e17a 713e c5a8 033e 8812 06be eb19 353e
000001a0: fe0c 1a3e 8a48 2c3e fcec 723d fafc e53d
000001b0: 4581 6e3d e7f2 e6bd 5d24 1c3e 4971 403e
000001c0: b545 983d 945a a6bc e8c7 54ba 974d fc3d
000001d0: f40c 0f3e fae6 7c3e 0fc4 d5be ef68 603d
000001e0: f274 503d 26e7 0c3e 826c dd3c d8fa a8bd
000001f0: e6e4 ca3d bcaf d73d 7748 0c3e 1315 503e
00000200: 3418 c73d 282d 8e3d 5784 0b3e b05d 6ebe
00000210: 867f 0cbd f3bf 23be 51a8 913e 65a8 423d
00000220: a489 5bbd c048 05be f71f debd 178d 99bd
00000230: c6d8 61bd 804d 253e 86de 0b3d 171c 2e3e
00000240: 1bfc 773e 1cbe a0be 5097 6fbd 7b04 663b
00000250: 217b 30bd 6061 283d c069 793e e965 5b3d
00000260: a929 99be 1aa9 5d3d b4e9 32be 388c 393e
00000270: 8587 c7bd 0a9a c7bd 4ecd a03d 2e2a 28be
00000280: be0b e63d e8eb e03b 9d38 0a3e c0b4 8c3d
00000290: 74e0 bfbe 71ce 2d3c f1d8 5ebc 9fc5 4a3e
000002a0: a3f3 f7bd 3432 9f3d 1eb1 aa3c 2854 073e
000002b0: bf00 10be eb4c 3fbe 0626 743d 0b37 633d
000002c0: a6a9 4cbb 7765 303e 3d15 23bd 4bad 2abe
000002d0: 33ab 293e 3007 9e3e 1636 e1bd ad04 823d
000002e0: d809 2abe 6ed6 173e 8356 d63d d4f1 56be
000002f0: 2801 673e 28b7 323d 5236 b83d 0dc6 30be
00000300: 4fbf 3c3d 94d8 5bbe 71f4 d0bd 792e 0c3e
00000310: 68b8 093d ec76 9d3d 2d97 9dbe 1d58 963d
00000320: 6e2e 203e 3484 83be 5433 793e e391 e53d
00000330: af3c 7cbe 98d4 8dbd 9a1f cbbd 4341 4f3d
00000340: aed5 43be 707a 9fbe 4e2d 3b3e 5a23 12be
00000350: fe86 e9bd 0b3b 26bb 120f 383e 9500 f5bd
00000360: 1b8f d93d 6c6c f43a cb0b f13b 21aa fc3d
00000370: 0a70 973d 481b 3a3c bf2f a0be 9b3d 93bd
00000380: 7522 073d 9f09 eb3d 0d21 8ebd f2eb 0f3e
00000390: 5a50 c6be 1776 5f3e c618 623e 21c0 91be
000003a0: c831 3c3e a1da 13be 1f3d 14be 5793 cc3e
000003b0: c30c 6ebe 727a 373e 7edd 023d 6947 323d
000003c0: 9363 e1bd 7a8d 08bc 5d5a 633d 542a 14bd
000003d0: 073b a3bd 9923 a3bd 7c7b 41bd 25f1 70bd
000003e0: b5bd 5bba d47c ce3d 8c1e 83bd 84b4 73bd
000003f0: 7ce7 bfbd c09e 163e 72bd 9e3e fad4 b6bd
-0.057314448 0.08597986 -0.017944058 -0.1163251 0.11880592 -0.14110592 -0.0071850503 0.17016804
-0.12134321 0.065137744 0.15650639 0.04034966 -0.2312049 0.13336216 -0.1904359 -0.10517451
-0.059859265 0.0023613882 -0.07654225 0.1439174 0.15877044 -6.7481065e-05 0.008738231 -0.060985498
0.13088414 0.07386836 0.023941496 0.5169004 -0.38761467 -0.17810272 0.24773209 0.16689353
-0.2366458 0.091367796 0.12367903 -0.34054735 0.1666763 0.122711144 -0.089070365 0.26567098
0.18730478 -0.2681885 0.18869582 -0.13430788 0.20581618 -0.06665076 0.04132374 -0.14106773
0.028425619 -0.04615374 0.0862508 0.0033365975 0.0961295 -0.21883413 0.1618368 0.083240196
-0.20441626 0.15605842 -0.104495436 0.072237656 0.017264312 -0.19082862 0.03322091 0.010338109
0.058753718 0.1670155 -0.075694345 -0.13005379 -0.1136521 0.044109434 0.09829326 0.15461282
0.17692389 -0.28630987 0.072235174 -0.23447481 0.034744978 0.3222865 0.09963062 -0.40122715
0.062557116 0.07308149 0.110254206 -0.1102212 0.13579826 -0.044841915 -0.07528299 -0.17156895
0.022896562 0.067358315 0.039119586 0.043280873 0.037915263 0.109640196 -0.12791993 -0.3870898
0.105042964 0.22880046 -0.26702812 -0.41728207 0.23582031 0.12857349 -0.13093007 0.17685668
0.15044019 0.16824546 0.059308037 0.11229892 0.05822875 -0.11276799 0.15248246 0.18793215
0.074351706 -0.020306863 -0.00081169466 0.123194866 0.13969785 0.24697486 -0.41751143 0.054787572
0.050892778 0.13760051 0.02702928 -0.0825097 0.0990694 0.105315655 0.13699518 0.20320539
0.09721413 0.069422066 0.13624702 -0.23277926 -0.034301303 -0.15991192 0.28448728 0.047523875
-0.05359806 -0.13016033 -0.108459406 -0.07497614 -0.055138372 0.16142845 0.03414776 0.17002903
0.24217264 -0.31395042 -0.058493912 0.0035097885 -0.043086175 0.04110849 0.24356747 0.053563986
-0.29914597 0.054116346 -0.17471963 0.18119895 -0.09742645 -0.097461775 0.07851659 -0.1642234
0.112327084 0.0068640597 0.13498159 0.06870413 -0.37475932 0.0106083015 -0.013601528 0.19801949
-0.12107017 0.07773247 0.02083641 0.13215697 -0.14062785 -0.18681686 0.059606574 0.055472415
-0.0031229048 0.17226206 -0.039815176 -0.16667669 0.16569214 0.3086486 -0.10996644 0.06348548
-0.16605318 0.14827892 0.104657196 -0.20990688 0.22559035 0.043631703 0.08994736 -0.1726305
0.046080884 -0.21469337 -0.102028735 0.13689603 0.03362313 0.07688698 -0.307794 0.07341025
0.15642712 -0.256868 0.24335986 0.11209466 -0.24632524 -0.06925315 -0.09918137 0.050599348
-0.19124481 -0.311481 0.18279001 -0.14271298 -0.11402701 -0.0025364782 0.17974499 -0.11963002
0.10622998 0.0018648035 0.007356142 0.12337137 0.07394417 0.011359043 -0.31286427 -0.07189485
0.032991845 0.114764445 -0.06939898 0.1405485 -0.38733178 0.21822391 0.22079763 -0.28466895
0.18378365 -0.14438869 -0.14476441 0.3995616 -0.23247056 0.17917803 0.031949513 0.043525133
-0.110053204 -0.008334512 0.0555061 -0.03617318 -0.07970243 -0.07965774 -0.047236905 -0.058823723
-0.00083824556 0.10082403 -0.06402311 -0.059498325 -0.09370324 0.14708996 0.3100391 -0.08927341

fc1.fcConv.0.bias f4 [300]
00000000: 0380 cd3b 1870 f83d 83ae 8f3e 8e8a 61be
00000010: 2a25 f43c 1a7c 0f3e 5628 a13d 2b50 2fbe
00000020: 29bf 733d 5a10 013e 600c 253e 2d3a 84be
00000030: 2854 69bd 2207 083e 0e9f 19be 0b03 753d
00000040: edea 22be c067 943b 3eea 13bd 27d7 0abe
00000050: 4384 6abe 9f3c 103e 9b21 44be e640 433e
00000060: 31aa 783d ace4 9ebd 10f2 023e 5008 233e
00000070: f42e 9bbd 290b 803e a9c8 68be d411 afbc
00000080: 0d13 273e 80b7 933d 6bef b1bd a98e 933d
00000090: 14e4 963e 2e28 b2bd 06ba 4ebe f3a1 193e
000000a0: 1a03 27bd 4e39 83bd 6c5f b03d 7fb0 28be
000000b0: b203 9cbd 076d 1e3e e573 5e3e 1c94 8c3e
000000c0: 42fb b2be 8431 37be 400a 0ebe f60e 84bd
000000d0: 6251 c1bd c629 9fbd 6518 343e 96db 413e
000000e0: 3961 1dbe 161c a13d 44fa 003e 73d9 873d
000000f0: 0e98 003e 667a 31be 82d1 dfbc dadf 89bc
00000100: 2b30 6fbe 52e1 563d fb80 50be fff5 ad3d
00000110: a3af cfbd 44ff 2fbe a483 123e 8823 123e
00000120: 51f7 88bd 11e4 28bb 0420 0a3d 983f 0fbb
00000130: 1a91 8dbc 9d3d 7f3d f3c3 d53c 0f32 ddbd
00000140: 792b 0a3e d42c 46bd 91c0 963d 9dea 17be
00000150: a0dd c7bc ab5d c1bc bedb ed3d 7ada b9bd
00000160: e577 153e def5 683d f484 bebd dd11 a93d
00000170: f13c 15be 7946 4ebe bc2f 1f3e 8a63 68be
00000180: b924 063e b597 91bd 35b6 c53d b07e 0bbe
00000190: ae30 0f3e 7971 a33d 4165 dbbd 1e06 41bd
000001a0: 1f97 7bbd 0b41 59bc 0f01 d03c 3bf7 0d3d
000001b0: cca1 333e 851d 063e 8ec4 83bc 3acf 113d
000001c0: 7e9c 59bc a381 bf3d 7b9a 49be e662 30bc
000001d0: d5d4 083d f626 203c 3216 e73c 5156 0cbe
000001e0: 54bd 3a3d 6aa9 e63b 4d3c 1cbe bf7b c0bb
000001f0: 33f4 733e c192 14be 06ff 223d 0c8f 16bd
00000200: aae8 09be f4b6 963d e7da aabd 7454 183d
00000210: 9daf d6bd 0f40 87bd e420 13bd 98fd e2bd
00000220: 3215 013d c42b c5bb 5a90 ebbd 03b9 25bd
00000230: c0fe 4abd 9f60 0a3d 6d05 4dbd e558 1f3d
00000240: 5af0 8e3e 79f7 03be 4081 ba3d dfda 93bd
00000250: a8a7 6fbe 422e 533d 11c9 17bd 4877 95bd
00000260: c329 59be d166 2a3e a289 eabd 4b2b 9c3d
00000270: df38 61bd a41c 8e3c eeef a73d 62f7 fa3d
00000280: bddf 01be 5316 97bb 1938 a8be b83c b5be
00000290: 77a1 8b3d ef36 303c 8f96 243e 5019 6abd
000002a0: f8ac fabd 5757 3f3e e067 27be 24ad a8bb
000002b0: d229 c13d fa48 e1bc a529 183e e490 fb3d
000002c0: 1d42 213e 9471 423d d3a2 c63d e39f 4b3c
000002d0: 4541 a8bd 902b cb3d 36d8 1abd fd2b af3c
000002e0: 46a7 4bbd 1507 46bd 1c1c cebd 5212 353d
000002f0: 3e6e 3f3e adc7 a93d 5c6b 45bd eec0 6dbd
00000300: ef34 d13d bffc 37be 0c0e cf3d c8d1 4bbd
00000310: 9e9e 8d3d 8aed 1b3e e801 103e abb4 1c3e
00000320: 2013 3e3e 2bce 8cbd aab6 4bbe 3c87 16be
00000330: 1f5d 21be 3880 3c3e e277 66bd 30fe 273e
00000340: 2f92 c03b 89c8 8e3b c3fd adbc e6a9 c6bd
00000350: d2ff 0a3e aaa7 2bbe 8e94 1f3b 165d 25bd
00000360: eb81 47be d20b a6bd 1f4c 963e 4d86 593c
00000370: 7dbd cebd c281 4c3e cca6 aa3d 46be 4bbe
00000380: 10ef 6dbe d521 743d e202 c7bd 4ab0 393c
00000390: 5079 4d3e 62e7 533d 61d5 05be 39dd 343e
000003a0: 5e9d d13c dc82 3fbb a5a4 c83d 8133 77bd
000003b0: e415 b63d b50d c2bd f489 02be 212b a73d
000003c0: ddd2 e93d 4308 28be 6b65 be3d b3ea 493e
000003d0: ec8a 243d 4227 d7bd 34ba 00be 3a1b 68be
000003e0: d4de 2dbd 1226 e0bc cd6a 673c f912 3dbd
000003f0: 88c4 2fbe ace1 60bc 5f2e 36be ea24 b33d
0.0062713637 0.12130755 0.2806283 -0.2202551 0.029802877 0.14012185 0.078690216 -0.17120425
0.059508476 0.12603894 0.16118002 -0.25825635 -0.056965023 0.13283971 -0.15002081 0.059817355
-0.1590993 0.0045289695 -0.036112063 -0.13558637 -0.22902016 0.14085625 -0.19153444 0.19067726
0.060709182 -0.077584594 0.12787652 0.1592114 -0.07577315 0.25008515 -0.22732796 -0.021370806
0.16315861 0.07212734 -0.086882435 0.07204945 0.29470885 -0.0869907 -0.2018815 0.15003185
-0.040774442 -0.064074144 0.0861195 -0.16473578 -0.07617892 0.15471278 0.21723898 0.27456748
-0.3495732 -0.17889982 -0.13871098 -0.06448166 -0.09439351 -0.077716395 0.17587431 0.18931422
-0.15369119 0.07866685 0.12595469 0.06633272 0.12558004 -0.17331848 -0.02732158 -0.016830374
-0.23358218 0.052460976 -0.20361702 0.08494186 -0.10140922 -0.1718722 0.1430803 0.14271367
-0.06687797 -0.0025770704 0.03372194 -0.0021857973 -0.017281104 0.06231462 0.026094412 -0.108005635
0.13493146 -0.048382595 0.07360948 -0.14835592 -0.024397671 -0.023604235 0.11614178 -0.09074874
0.14596517 0.056875102 -0.093027025 0.0825536 -0.14574029 -0.2014407 0.15545553 -0.22694221
0.13099946 -0.07109014 0.09653894 -0.13622546 0.13983414 0.079806276 -0.10712672 -0.047124974
-0.061423417 -0.013260136 0.02539113 0.034659605 0.1754219 0.13097198 -0.016084936 0.035598017
-0.01328194 0.09350898 -0.19687836 -0.010765767 0.033406097 0.009774914 0.028208826 -0.13704802
0.045590714 0.0070392387 -0.15257378 -0.0058741267 0.23823623 -0.14509107 0.03979399 -0.036757514
-0.1346766 0.07359114 -0.083425336 0.037189916 -0.10482714 -0.06604015 -0.03592004 -0.110835254
0.031514354 -0.00601718 -0.11502142 -0.040459644 -0.049559355 0.03378355 -0.050054003 0.038903136
0.2791775 -0.12887372 0.09106684 -0.07219481 -0.234038 0.051557787 -0.037056986 -0.07298142
-0.21207337 0.16640784 -0.114520326 0.07625445 -0.054985877 0.017347641 0.0820006 0.12254216
-0.12683006 -0.0046108156 -0.328553 -0.35397887 0.06817906 0.010755285 0.16073059 -0.057153046
-0.122400224 0.18685661 -0.16348219 -0.005147593 0.09431805 -0.027500618 0.14859636 0.12283495
0.15747876 0.047471598 0.09699025 0.012428257 -0.08215574 0.09920418 -0.03780385 0.02138328
-0.04972007 -0.048346598 -0.10063955 0.044206925 0.18694398 0.08290038 -0.04819809 -0.05804532
0.102151744 -0.17967509 0.10110101 -0.04976061 0.069150195 0.15227333 0.14063227 0.15303294
0.18561983 -0.06875261 -0.198939 -0.14700025 -0.15758179 0.18408287 -0.056266673 0.16405559
0.0058768014 0.0043574017 -0.021239167 -0.09700374 0.1357415 -0.16763178 0.002435002 -0.040371977
-0.19483154 -0.08107723 0.2935495 0.013276649 -0.10094736 0.19971374 0.08332595 -0.19896802
-0.23235726 0.059602577 -0.09717347 0.0113335345 0.20065808 0.051734336 -0.13069679 0.17662515
0.025587734 -0.0029222285 0.097970285 -0.060351852 0.08890894 -0.09475271 -0.12747937 0.08162523
0.11417172 -0.16409402 0.09296688 0.19718437 0.04017155 -0.10505535 -0.12571031 -0.22666636
-0.042448834 -0.027361903 0.014124584 -0.04616067 -0.17164814 -0.013725679 -0.17791127 0.08747275

fc1.fcConv.1.weight f4 [300]
00000000: e5cc 973f f83c 823f 6543 653f d38b 863f
00000010: 255f 503f 46bb 663f 2053 523f 85a5 603f
00000020: db77 803f 9d19 513f 7133 7d3f b476 623f
00000030: c06f 843f b66a 9c3f 7213 303f d06a 673f
00000040: 3151 623f c8e8 683f 5e69 483f 3aec 4f3f
00000050: 57b9 403f a599 523f 8126 473f ffd5 5f3f
00000060: aec0 883f 1b12 563f 7863 783f 1009 623f
00000070: 67bd 9a3f a97b 803f f5b0 8b3f 028e 463f
00000080: 6a36 673f 646a 553f ff6d 613f 65c7 7d3f
00000090: cb4a 863f 43cc 723f b16e 8a3f 6326 893f
000000a0: ce90 843f 2c3e 5f3f ee16 7b3f f8be 9c3f
000000b0: e95c 883f 001c b13f b073 793f 26e0 733f
000000c0: 1ca4 393f 36c3 883f 4a0a 8b3f ce79 8a3f
000000d0: 02ec 8d3f f9c4 863f 81f8 763f cb6b 593f
000000e0: 1b2c 643f 01b8 873f f1cc 633f 25f7 5c3f
000000f0: 1ac8 723f c83b 553f 1860 3f3f c583 a23f
00000100: ea2a 9e3f e45f 343f 3a3b 333f 65e3 8e3f
00000110: 23f6 853f d64b 8d3f 3e68 643f 8751 823f
00000120: d2ba 433f 665c 853f e3bb 823f c941 883f
00000130: 16aa 813f 0e0c 4d3f 664a 553f b5ba ab3f
00000140: 9c39 883f 67a7 733f 506b 593f e31a 793f
00000150: cd6d 7f3f 6e1f ab3f 4249 313f a07e 5b3f
00000160: 08d1 c03f baa4 753f 4145 7e3f 89f0 893f
00000170: 0129 583f 118f 873f 5838 6a3f 6fd2 a73f
00000180: f8cc 673f fa3e 923f c63c 7d3f 64ad 773f
00000190: 7d14 603f 2fe0 a23f 67e8 5c3f 9c0e 623f
000001a0: a1ce 973f db25 763f e22e 883f 0d7c a73f
000001b0: 6fb6 a03f 75e5 8c3f 954b 9a3f a9ee b53f
000001c0: 6301 823f 4f8c 693f 741e 9f3f 0c87 603f
000001d0: a7e7 313f 2383 523f 5c7c 653f ed06 653f
000001e0: bffe 9b3f 4e53 643f b743 413f ee14 533f
000001f0: 854f 693f 6942 803f b8de 663f eca3 933f
00000200: 6c9a 643f b3b0 843f 10ac 803f 688d 933f
00000210: cee6 923f 0280 503f e207 353f eb30 853f
00000220: a46d 943f 34c5 e13f 8f2f 763f b9f3 783f
00000230: 2fc5 493f 07e0 963f f76e 8c3f fed2 5e3f
00000240: e39b 5f3f da9f 623f af96 4d3f 8cc3 4c3f
00000250: 4756 873f c6ca 8f3f 6fb8 943f 6a51 8b3f
00000260: ce49 863f 654f 933f f611 5c3f de1c 753f
00000270: 5341 253f afac 6a3f 8ce7 353f c68a 5f3f
00000280: ac32 8f3f ace5 843f 38d5 7e3f 431d 853f
00000290: b025 463f b2aa 7b3f 7760 7d3f b096 723f
000002a0: fb43 793f bad7 853f 70a3 9d3f 24f9 5f3f
000002b0: 12d0 4f3f 9e8e 9b3f d4e3 853f 422c 9f3f
000002c0: e953 9a3f f3da 7c3f 7abe 6b3f 6979 8f3f
000002d0: 7b9d 8a3f 77c6 513f 4860 753f d919 643f
000002e0: 9f4f 733f b816 5a3f d5b8 823f 3890 573f
000002f0: e614 853f e791 833f 5909 673f 0d83 6e3f
00000300: 4f7f 963f a62f 693f 72fe 733f 4575 853f
00000310: 4a2f 4c3f fab1 9f3f 557d 6a3f ad84 773f
00000320: aae0 6e3f 4d1b 8a3f 15a2 4a3f e6f7 6d3f
00000330: 614d 513f 9a61 763f 6137 473f dca0 a63f
00000340: 3f65 943f 91c9 7e3f eea6 963f 34e8 533f
00000350: 7f39 6a3f 604a 813f 2806 a63f 6f2d 843f
00000360: 12df 763f 89ad 853f f2b5 3a3f ce05 803f
00000370: ffdb 733f 3821 773f 682b 473f afc5 643f
00000380: b0bf 793f 8d7a 873f bbd8 643f 5bfd 683f
00000390: 4327 6b3f df1e 803f 153d 753f 40ad 8a3f
000003a0: f535 613f 1a0c 843f df7d 6d3f b0e3 8b3f
000003b0: cb6a a83f af7c 753f 59ef 5e3f c4f7 853f
000003c0: 475c ae3f 4c21 6a3f 72bd 443f 32cc 593f
000003d0: 3325 553f c321 843f babf 5a3f a348 8e3f
000003e0: 4543 863f 0594 5c3f 926c 6f3f 6bd8 553f
000003f0: d69b 5c3f eeb3 683f b6c1 3a3f 4911 783f
1.1859404 1.0174856 0.8955596 1.0511421 0.8139518 0.90129507 0.8215809 0.8775256
1.0036577 0.8167971 0.9890662 0.88462377 1.0346603 1.2220066 0.6877967 0.9039736
0.8840514 0.90980196 0.7828578 0.8121983 0.75282806 0.8226569 0.7779313 0.8743591
1.0683801 0.83621377 0.9702678 0.8829508 1.2089051 1.0037738 1.0913378 0.77560437
0.90317404 0.83365464 0.88058466 0.99132377 1.0491575 0.9484293 1.081503 1.071484
1.0356691 0.8720424 0.9808186 1.2245779 1.0653354 1.383667 0.9744215 0.952639
0.72516036 1.0684574 1.0862515 1.0818422 1.1087649 1.0528861 0.96472937 0.84930104
0.891298 1.0603029 0.8898459 0.8631461 0.9483658 0.83294344 0.74756 1.2696463
1.2356846 0.7045882 0.7001225 1.1163145 1.046574 1.1038768 0.8922156 1.018113
0.7645694 1.0418823 1.0213588 1.0645076 1.0130031 0.8009652 0.8331665 1.3416353
1.0642581 0.9517731 0.8492937 0.9730665 0.9977692 1.3368967 0.6925241 0.8574009
1.5063791 0.9595448 0.99324423 1.077653 0.84437567 1.0590535 0.91492224 1.3111094
0.9054713 1.1425469 0.9892086 0.9674895 0.8753126 1.2724665 0.8629212 0.8830354
1.1859933 0.9615151 1.0639307 1.3084732 1.2555674 1.1007525 1.2054316 1.4213458
1.0156673 0.9122972 1.2431169 0.87706065 0.694941 0.8223135 0.8964288 0.8946369
1.2187117 0.8918961 0.7549395 0.8245381 0.9113696 1.0020267 0.9018359 1.15344
0.8929813 1.0366424 1.0052509 1.1527529 1.1476686 0.81445324 0.70715153 1.0405554
1.159596 1.7638307 0.9616632 0.9724689 0.78816503 1.1787118 1.0971364 0.870407
0.8734724 0.88525164 0.8030805 0.7998588 1.0573205 1.1233757 1.1618785 1.0884221
1.0491273 1.1508604 0.85964906 0.9574717 0.645528 0.91669744 0.7105644 0.87321126
1.1187339 1.038259 0.99544096 1.0399555 0.77401257 0.98307335 0.9897532 0.9476118
0.97369355 1.045646 1.2315502 0.87489533 0.81176865 1.2152898 1.0460153 1.2435381
1.2056857 0.9877159 0.9208752 1.1208926 1.0829309 0.8194346 0.9585004 0.8910194
0.9504337 0.85190916 1.0212656 0.84204435 1.0397003 1.0278901 0.9024864 0.9316872
1.1757601 0.9108833 0.9531013 1.0426413 0.7975966 1.2476189 0.9159749 0.9668682
0.9331156 1.0789582 0.7915357 0.9295639 0.81758696 0.9624268 0.77818877 1.301784
1.1593398 0.99526316 1.1769693 0.8277619 0.9149398 1.0100822 1.2970629 1.0326365
0.9643413 1.0443584 0.72933877 1.0001771 0.9525756 0.9653506 0.7780061 0.8936414
0.97558117 1.0584275 0.89393204 0.9101159 0.91856784 1.0009421 0.9579633 1.0834122
0.87972957 1.0316193 0.9277019 1.092886 1.3157591 0.9589338 0.87083966 1.0466237
1.3621911 0.91457057 0.7685157 0.850772 0.83259887 1.0322803 0.854488 1.1115917
1.0489279 0.8616336 0.9352504 0.8353335 0.86175287 0.9089955 0.7295183 0.96901375

fc1.fcConv.1.bias f4 [300]
00000000: 0175 cdbd f9a1 9bbb 1357 02be d06c 3abe
00000010: 611c 02be a43b c6be 2842 4a3d 1437 ec3c
00000020: c62d 0bbd 6773 21bd 00c1 ebbd 5985 9dbc
00000030: 9ec4 033e 7fad 233e 12ec 3fbd b9c8 31bd
00000040: ee4c 1bbe e2ee d4bd 9356 d8be 2c9b 69bb
00000050: 72a9 99bc 5d80 72be 5599 38be 51e1 a1bd
00000060: 7fad 5b3e 04f4 bcbc 24e1 74be 7921 8b3d
00000070: ded6 ccbd 79bf 063e f690 fa3d 98ec 1dbe
00000080: 8077 d3bd bf72 d03c 00fc b2bb f759 523b
00000090: 10b3 b0bc 235c 043e 4d03 333e 567c c23d
000000a0: 5393 e5bd b98b ebbd daf2 da3c fe2d 10be
000000b0: 5c15 0d3e e595 ae3d cbd1 93be 9b29 e93d
000000c0: f8b8 fb3d 4de2 903e 155b 833d 5404 a2bd
000000d0: 9baa 123e 9698 08be a2ba 4fbe 91b6 04be
000000e0: f532 f4bd b807 16be ed42 f53d 90c1 20be
000000f0: 9ef6 e0bd 1b4b 7dbe 7db2 243d 8bcc 7fbe
00000100: ad62 63be d59e d4bc 0872 903d b35c 8abe
00000110: 3ce3 f13c 4b4c 0c3e e5b0 30be 16f6 06be
00000120: cf6c 0abe be81 61be c252 e73c 516b 99be
00000130: 7415 373d 9dce 9fbd 66ed 623d c403 c2bd
00000140: d448 5ebd d6b7 0fbe af8c 89be cddc 123e
00000150: b786 93bd 94dc d63b 41be 3ebe 6548 39bc
00000160: a091 323e 9795 72be e84c ff3d f4bc 50bc
00000170: 7f27 053e 0e12 83bd 43e0 c63c e1fe 933e
00000180: 0715 453d 3bd5 2fbe d733 2cbe 4267 00be
00000190: eeec 39be 73f1 0bbe c90f 2dbe d566 eabc
000001a0: e73d 9cbe 2c65 b13c c2c5 09be 511c a53d
000001b0: 1387 87be 5587 e53d b241 51be f934 f63d
000001c0: e39b c43d 2db9 a0be 905b 223e 7b05 0dbd
000001d0: 2ff0 b1bd 6d96 37be 103c 8bbe 2a4b 39bd
000001e0: 6fe2 19be d346 2d3e 32be 8abe 13fd 7bbc
000001f0: 884b ce3d 4caf 9d3d 823a c63d f348 9d3e
00000200: e0cf a7bd df30 46be 45a3 753d ae23 923d
00000210: cc47 c3bc 060a 9c3d ce2f bcbd 511a eabd
00000220: b985 2d3e 2963 a33e 0374 e43d aca5 14be
00000230: 4387 68bd a9ee 153e b6a4 a7bd 342e c53c
00000240: 623a fbbd 101f adbd 75b5 76bd 47e5 233e
00000250: f74d 23bc 9659 30be 2da7 853d d999 5b3d
00000260: 4801 45bd 6f67 7fbe 7aff c7bc d1c1 0dbe
00000270: c4ef c13d 5288 5bbe 1c4f 8dbc 7c34 aebd
00000280: 26aa 5ebd 72fe 9abe 1183 7abd bea6 963e
00000290: cb3b df3c 13b3 8bbd da50 81be 3b7b c8bc
000002a0: 21f4 3ebe 99e8 d93d 8916 3f3e 7cf7 b13d
000002b0: d3a8 5dbe 75b6 7abe 8394 bcbd 1af2 62be
000002c0: bf0d 4ebd 9600 1dbe 745a ebbd 2138 c33d
000002d0: 7c31 39be 1666 f4bd 752c 083e 688e 5c3d
000002e0: 4963 dfbc 2aee 02be 3f0b 2abe eb31 8fbd
000002f0: 335d 6cbe 5005 58be 74cb 7ebe 9922 9dbe
00000300: 0523 aabd 89dc 353e fe62 9f3d 6124 c2bd
00000310: 268c d1bd bb32 ed3d ef86 2dbd cb14 873b
00000320: f31a 09be 6997 333e 62c7 4ebe 6933 b9bd
00000330: d207 9bbe 4494 8bbe 5aec 68be 8b74 97bd
00000340: a894 a1be 9db4 f93d 532d ef3d 72fa 3cbd
00000350: a01d e33c 02c5 063d d695 373e 9bbf 8a3d
00000360: 282c a6bc 90d5 9abd 533b 63be 00fa 9cbd
00000370: 3365 81be 1a6e 1ebe f2e1 05bd 07a7 44be
00000380: 9103 b73d 4e8d fbbd 59f5 35be a002 b6be
00000390: 9b5d 953d 349f 34be fce0 38bd 18f3 05bd
000003a0: a5f4 80bd 6a33 b23d 9992 47be 7459 113e
000003b0: d2f8 8b3d 84ca 2c3e df9f 03be b18b ccbd
000003c0: dd97 a93e a948 48be 8ab3 debd c332 e1bc
000003d0: 521b b5be 3476 1abe 0ad5 03be 19d2 bebe
000003e0: 4e66 0b3e 7006 b93c 0d0b cf3c b29c 29be
000003f0: b3ae 38be dc02 d8bd ac32 18be 52e7 c83e
-0.10032082 -0.0047495333 -0.12728529 -0.18205571 -0.12706138 -0.38717377 0.049379498 0.028834857
-0.0339792 -0.039416697 -0.11511421 -0.019228624 0.12867972 0.15984152 -0.046855994 -0.043404315
-0.15166065 -0.10397126 -0.4225355 -0.0035645468 -0.018757556 -0.23681779 -0.18027242 -0.07904304
0.21452902 -0.023065574 -0.2391401 0.06793494 -0.1000192 0.13158979 0.1223468 -0.15422285
-0.10325527 0.02544534 -0.0054621696 0.003209708 -0.021569759 0.12925772 0.17481728 0.094963714
-0.112097405 -0.11501259 0.026727129 -0.14080045 0.13777679 0.08524684 -0.28870997 0.11384889
0.12291139 0.28297654 0.06413857 -0.07910982 0.14322893 -0.13339457 -0.20286039 -0.12960269
-0.11923782 -0.14651382 0.11975656 -0.15698838 -0.109845385 -0.24735682 0.040209282 -0.2498037
-0.2220561 -0.025954643 0.07053 -0.2702385 0.0295273 0.13700978 -0.1725498 -0.13179812
-0.1351807 -0.22022149 0.028237704 -0.29964688 0.044698194 -0.0780308 0.055402182 -0.094733745
-0.054268673 -0.14034972 -0.26865146 0.14342041 -0.07203429 0.0065570567 -0.18627264 -0.011308764
0.17438364 -0.23689876 0.124658406 -0.012740362 0.13003348 -0.06399928 0.024276858 0.28905395
0.048115756 -0.17171185 -0.1681665 -0.1253939 -0.18156788 -0.13666324 -0.16900553 -0.028613487
-0.30515978 0.021654688 -0.13454345 0.080620416 -0.2647024 0.11207453 -0.20435217 0.120218225
0.096000455 -0.31391278 0.15855241 -0.034429055 -0.086883895 -0.17928477 -0.27194262 -0.045237698
-0.15027784 0.16921549 -0.27098233 -0.015380162 0.10073 0.07699451 0.09679128 0.30719718
-0.08193946 -0.1935458 0.05997016 0.071357116 -0.023837946 0.07619099 -0.091888055 -0.11430801
0.16945542 0.3191159 0.1115494 -0.14516324 -0.05676962 0.14641823 -0.08185713 0.024069883
-0.12266995 -0.0845319 -0.060231645 0.16005431 -0.009967319 -0.17221674 0.06526027 0.053613517
-0.048096925 -0.249418 -0.024413813 -0.13843466 0.0946956 -0.21438721 -0.017249636 -0.08506104
-0.054361485 -0.3027225 -0.06116015 0.2942409 0.027250191 -0.06821265 -0.25256997 -0.024472823
-0.18647815 0.106400676 0.1866094 0.08689782 -0.21646433 -0.24483664 -0.09208014 -0.22162667
-0.050306078 -0.15332255 -0.11491862 0.0953219 -0.18085283 -0.11933534 0.13298209 0.053846747
-0.027269023 -0.12786165 -0.16605853 -0.06991943 -0.23082428 -0.21095777 -0.24882299 -0.30690458
-0.08307461 0.17759909 0.07782553 -0.09479595 -0.10231809 0.11581942 -0.04236501 0.0041223518
-0.13389187 0.17538227 -0.20193246 -0.09043009 -0.30279404 -0.27261555 -0.22746411 -0.07395276
-0.31558728 0.121926524 0.11678567 -0.04613728 0.027724087 0.032902725 0.17928252 0.06774827
-0.020284727 -0.07560265 -0.22190599 -0.07664871 -0.2527252 -0.15471688 -0.03268618 -0.19204341
0.08936227 -0.12282811 -0.17769374 -0.35548878 0.072932445 -0.17638856 -0.045136437 -0.032702535
-0.06296662 0.08701213 -0.19489516 0.1419428 0.06834568 0.16874129 -0.12853955 -0.099875815
0.33123675 -0.19558968 -0.10874088 -0.027490025 -0.35372406 -0.15084153 -0.12874237 -0.37269667
0.13613245 0.022586077 0.025273824 -0.16563681 -0.18035392 -0.105474204 -0.1486308 0.39238983

fc1.fcConv.1.running_mean f4 [300]
00000000: b5b7 8e3e d381 afbd 50db c03e 98a6 803e
00000010: b4fb 943c c3e0 2e3e 7298 ce3d 398d a0bd
00000020: 120a c9bd 6f4e 623e 4c03 923e a968 acbe
00000030: 135e 2fbe 14af fa3e f925 98be 9a55 c8bd
00000040: 8a49 d03d d6b0 943e b019 97be affc 85be
00000050: bfb2 abbd f63e 633e 6edf f7be f02a 763e
00000060: c102 133e 2b0d 8d3e 934f e8bd 35f6 c73d
00000070: 7bbe a4bd 66b6 3c3e da72 953c 96e6 b6bd
00000080: c9ce f53d 602b 003d be48 70be f097 01be
00000090: 48ae 9f3e 40e8 83be 602b 5bbe 6ae3 8f39
000000a0: 36bb efbc 0e45 a3be 8f3b ac3e e068 45bd
000000b0: f102 003e 238a 5cbd 62fe 66be b5a5 933e
000000c0: 6648 52bf f17f c83e 18a4 403e 5cef a73e
000000d0: ebe9 30bc ace3 b43d f596 f43d eed8 1c3e
000000e0: f62d 8bbe fbe6 c8bd 86ee 033e 1a0b 62be
000000f0: e6f1 9fbe 3f03 8ebd 23d8 2abe 9ac5 08bc
00000100: b39a 98be 8c73 f83d 1187 16be 1a1c 063e
00000110: 7eab e8be f590 8abe c8c7 713e 3eb6 5e3d
00000120: 50a7 bfbe 90c3 af3e dc90 92be 97d2 9b3d
00000130: a516 53be f398 433e 98ca 12bc 906e f8bc
00000140: 2fd4 0cbd 942e 1f3e 8227 ae3d 4f62 703e
00000150: ea1a 28be cbad c8bd 3ec5 4dbe bea2 8fbe
00000160: 276f a13c e650 86be 30cb c4be f38e c2bd
00000170: 39e6 e0be 54ec d1be 9695 52bd 0003 e4bd
00000180: 0f28 7d3c 6362 63bd da46 c8bd 5bc0 873c
00000190: 66d7 043e 290b 5e3e e413 02be 0220 83be
000001a0: 1188 263c 09e0 d8be 52c7 f1bc 0714 8e3e
000001b0: 7576 81bd cc7b 183e b621 b4be 3fda 223d
000001c0: 38e4 56be c6fa 78bd c657 f93d 636c 69be
000001d0: 74a3 21be f0a3 8c3d a0e8 0dbe 5a30 99be
000001e0: 5c76 68be 8582 483e 3840 783e 4c65 e93d
000001f0: b814 1b3d 822a 10be 079f 51be d804 923c
00000200: 5001 e9bd c1f5 f9bc 6e85 8dbe 33b0 db3d
00000210: de39 7cbc 7f6e a73d 43b1 90bd 2569 8a3e
00000220: 68fd ca3e d938 673e 032b 1dbe 0cf7 a6be
00000230: 796c 533e 5e89 c0bd a41f 28bc bf41 c8be
00000240: d309 8f3e b81c 11bf a2dd bf3e cf23 763e
00000250: e019 2bbd cea6 023f 49e9 4bbd dded 5ebe
00000260: 5c06 a2be dcbb 143d 444e bebd e535 5ebe
00000270: 6183 26be 7965 afbe 9d66 11be dc96 973e
00000280: fe2a 3ebe 587b babe 3360 b6be a54d 34bf
00000290: f9b7 61bd 4757 323e d9f7 983d 5898 833d
000002a0: d7b1 88be 2a31 6f3e eef6 d3bc 6e11 8f3e
000002b0: 3062 8b3d 888c 95be c473 2a3d 8ad3 c13e
000002c0: 667c d53d 5ab3 f23d 51a0 323e 64b3 bfbe
000002d0: dd79 73bd 9a23 c2bd cc86 b63d 8e03 67bd
000002e0: a688 5e3d 2ff0 61be aa7c 5b3d 89c3 dd3d
000002f0: 9da7 103e b919 5dbe 1280 e23c 1b1e bb3c
00000300: 8012 5f3e 7372 cabb 5258 ef3d e3bf a63e
00000310: e984 603d 9acf 6b3d 77b6 953e 1087 4f3e
00000320: bf15 8d3e 4aa6 89be 2b66 9dbe c545 42be
00000330: 326b a2bd f22c 033e da96 8abe 5101 5d3d
00000340: 0d66 83be 69a5 da3e e2cd 793e c2c1 71be
00000350: 9737 01be 924f a33d fbe8 27bd f5c9 16be
00000360: 61f8 d4be a940 4bbe b55a 073f fc88 743d
00000370: 7c4b 06be dd3b df3d bda8 d13e ba4c bc3c
00000380: f2e5 8ebe 2254 80be 02b9 5b3d fb8f e43c
00000390: 18c6 9f3e cae9 c33e cb4d 5cbe 1d16 20be
000003a0: af51 f93d 2351 b8be 7e30 02be a77d 673d
000003b0: e123 023e 34ce 983d 1b76 30be 5d41 e43d
000003c0: 2d85 e83d dc8e 9dbe 8e5d 1a3c da20 4b3e
000003d0: d001 c13c 4b9f 19be f631 283c 06ed 89be
000003e0: 0fab 5cbe 854e cd3d c56e f8bd b06a 563e
000003f0: d2e1 d5be 0173 36be 6d8a 69bd cab5 9a3c
0.27874532 -0.08569684 0.37667322 0.251271 0.018186428 0.17077927 0.100876704 -0.07839436
-0.09816374 0.22100233 0.2851814 -0.336736 -0.1712573 0.489617 -0.2971647 -0.09781952
0.101702765 0.29041165 -0.29511786 -0.26169345 -0.083837025 0.22191986 -0.4841265 0.24039817
0.1435652 0.2754911 -0.113433026 0.09763757 -0.08044144 0.18428954 0.018243242 -0.089306995
0.12002332 0.031291366 -0.23465249 -0.12655616 0.31187654 -0.2576313 -0.21403265 0.00027444522
-0.029264074 -0.31888622 0.3363919 -0.04819572 0.12501122 -0.053842675 -0.22557977 0.28837362
-0.8214172 0.39160112 0.18812597 0.32799804 -0.010797958 0.088324875 0.11942855 0.15317127
-0.27183503 -0.09809681 0.12883958 -0.22074547 -0.3123924 -0.06934213 -0.16684012 -0.008347893
-0.29805526 0.12131414 -0.14699961 0.13096657 -0.45443338 -0.27063718 0.23611367 0.05437302
-0.37432337 0.3432889 -0.28626144 0.07608526 -0.20614107 0.19101314 -0.008959435 -0.030326158
-0.03438204 0.15545112 0.08503629 0.23475002 -0.16416517 -0.097987734 -0.20094773 -0.2805385
0.019706322 -0.26233596 -0.3843627 -0.09499922 -0.43925646 -0.41000617 -0.051412188 -0.11133385
0.015451445 -0.05551375 -0.09779139 0.016571214 0.12972793 0.21683945 -0.127029 -0.25610358
0.010164277 -0.42358425 -0.029513989 0.27749655 -0.06321422 0.14890975 -0.3518197 0.039758917
-0.20985496 -0.06078603 0.121749446 -0.22795253 -0.15785009 0.06867206 -0.1385827 -0.29919702
-0.227014 0.19581039 0.24243248 0.11396274 0.037861556 -0.14078715 -0.2047082 0.017824575
-0.113772035 -0.030512692 -0.2764086 0.10726967 -0.015394656 0.08175372 -0.0706506 0.27033344
0.3964646 0.2258028 -0.15348439 -0.32610357 0.20646848 -0.09401201 -0.01026145 -0.3911266
0.27937183 -0.56684446 0.3747378 0.24037097 -0.041772723 0.51035774 -0.049783025 -0.21770425
-0.31645477 0.03631197 -0.09292272 -0.21700247 -0.16261055 -0.34257105 -0.141993 0.29607284
-0.18571088 -0.3642223 -0.3562027 -0.70430976 -0.05510709 0.17416106 0.07469148 0.06425542
-0.2669818 0.23358598 -0.025874581 0.27942985 0.06805837 -0.2920878 0.04161431 0.37856704
0.10424118 0.11850615 0.17443968 -0.37441552 -0.05944239 -0.09479447 0.08912429 -0.056399874
0.054329537 -0.22064279 0.053585686 0.10828311 0.1412644 -0.21591844 0.02764896 0.022841504
0.21784401 -0.006178194 0.11686768 0.32568273 0.054814253 0.05757103 0.29240772 0.20266366
0.27555653 -0.2688468 -0.3074201 -0.18971927 -0.07930602 0.12810114 -0.27068216 0.053956334
-0.25663796 0.42704323 0.24394944 -0.23609069 -0.12618862 0.07974161 -0.040993672 -0.14725478
-0.41595748 -0.19848885 0.5287278 0.05970095 -0.13114733 0.1090009 0.4094905 0.022985805
-0.2790981 -0.25064188 0.053643234 0.027900686 0.3120582 0.38264304 -0.2151405 -0.15633436
0.12173783 -0.35999402 -0.12713811 0.056516316 0.12708999 0.07461205 -0.17232554 0.111452796
0.11353526 -0.30773056 0.009421719 0.1983675 0.023560435 -0.15002172 0.010265818 -0.26938647
-0.21549629 0.10024742 -0.121305026 0.20939136 -0.4177385 -0.17817308 -0.05701678 0.018885512

fc1.fcConv.1.running_var f4 [300]
00000000: 98c9 863e 5673 383e c0de fc3d b5d7 353e
00000010: ed75 0e3e 1737 353e e6a1 c43d e797 e13d
00000020: 8c1e 493e c39d 0e3e 6783 0a3e aadc 0b3e
00000030: 179e 723e 6935 3f3e a9a0 473e 35f9 fb3d
00000040: c655 123e 3982 8a3e b4f5 173e c951 033e
00000050: 49f1 0a3e b78b ca3d db1f 333e 7722 6f3e
00000060: c4ba 2c3e b335 223e 156d 2e3e 0090 2d3e
00000070: e8ba 543e f018 da3d e78d 0e3e 25dd 273e
00000080: 0a81 2c3e d79e 183e 57c2 443e 288d 173e
00000090: 0300 073e 1155 123e d8f5 413e 5b37 2a3e
000000a0: de85 503e ddd5 223e 39b6 f93d ee42 5d3e
000000b0: 1f64 0d3e bb99 263e b729 093e 8edd 0d3e
000000c0: e58a 0e3e f44d 673e cc31 203e 4175 1d3e
000000d0: 2783 663e 93cf 543e 3a14 323e 64d1 3a3e
000000e0: ac7b fa3d d63b 423e 3df9 e93d dee8 0e3e
000000f0: 282e d83d 3750 263e d9af 293e e54d 653e
00000100: e569 4a3e 19a5 f23d d004 1d3e 0e38 483e
00000110: 8791 1e3e 57cd 463e 4408 1e3e 84cc 0b3e
00000120: 82a2 1e3e a9b0 4a3e 0bba ff3d d626 1b3e
00000130: 252b 233e 217f 1a3e 99f4 123e 01c9 0b3e
00000140: 684f c73d eb0a 1b3e 12be 1e3e 3f3c 493e
00000150: 30f0 2b3e 6afd 1d3e 31cd 0a3e 61f0 f43d
00000160: d47f 213e 2c72 233e b2ce 133e f35d c13d
00000170: 2d3d 553e 5f73 373e 4141 ef3d 6a41 863e
00000180: 8609 263e 48af 143e 59b7 023e 6321 2d3e
00000190: fed7 193e b07d 0e3e 0abf 253e 65ef 523e
000001a0: d926 673e 3fd6 993d aad2 1b3e 0ada 663e
000001b0: 0e89 343e 68b0 3b3e 9649 0f3e eae1 1c3e
000001c0: 0db9 043e 5aa4 1b3e d507 403e 5250 983d
000001d0: 39c2 123e 699a 333e b396 fc3d 1934 143e
000001e0: 68f6 893d be37 663e f07a 343e 9b7b 2b3e
000001f0: 5a15 923d 7a66 733d 2fce 053e 1bb2 073e
00000200: 695d 243e e858 3b3e a4bd 383e eae2 333e
00000210: 924d 273e fc0b 293e c974 183e 013b 4f3e
00000220: b6c6 533e 4a6a 6f3e 35b3 df3d ab86 1f3e
00000230: a32a 083e 7948 e63d 5abe 5d3e ef2c 043e
00000240: 1a2c 373e c299 9d3d 0b36 e13d b8e7 323e
00000250: 6854 133e 4f82 4a3e 00e4 573e 050e 8e3e
00000260: a086 e03d 97d6 1d3e 57e5 033e 163a b53d
00000270: d558 283e 149e 373e 1626 243e f0da 2b3e
00000280: 12b5 493e 7612 3b3e ddef 063e 27eb e93d
00000290: bd3e 0b3e a0ac e43d 0bc0 c13d 4ebd 073e
000002a0: 17b7 193e 3ee8 ff3d 07b7 d33d 26b0 023e
000002b0: 8be0 243e 96f1 013e 3031 2b3e b4d0 083e
000002c0: 7222 073e 1395 1e3e 4dad 5a3e d944 f93d
000002d0: 14d6 0d3e 7403 fe3d 7875 123e 2a13 0b3e
000002e0: a7db 4e3e ce8d 203e 33d8 463e 45b1 1a3e
000002f0: c497 1a3e c0fa 063e 0d62 2d3e 8065 063e
00000300: a7e4 0b3e 6595 423e da86 093e 1085 273e
00000310: c218 443e b58f 813d 2b9a 4a3e 81e8 283e
00000320: 60d3 5e3e 2ff2 993d d751 1d3e f007 273e
00000330: 5505 333e d359 173e c330 523e 4083 373e
00000340: 686a 213e 605b 543e 7c5a 353e 7bbc 283e
00000350: 3d0a fe3d e02a bf3d fb8c 973e f925 363e
00000360: 6408 a93d da4f 703d bbac 143e 15f4 ec3d
00000370: 19ea 0c3e 3f2d 1e3e 0f61 3f3e 6f4a 1d3e
00000380: 7639 3d3e 5bc5 f93d fb41 3d3e 4cc8 213e
00000390: f178 0f3e 417e e13d 52ef 203e f481 193e
000003a0: 11d0 283e 4a3d cb3d 07d5 413e 14a6 1a3e
000003b0: 711c 5a3e 9a8e ed3d 6072 ea3d f4d1 2e3e
000003c0: e64a 173e d089 b13d a79e 5b3e f081 d43d
000003d0: ab50 553e 9311 253e f6ae 043e ca18 593e
000003e0: 7020 d43d 3702 083e 0110 1c3e 8d09 203e
000003f0: ac4e 273e db6f 023e 93b5 033e 8c10 f93d
0.2632568 0.18012747 0.12347174 0.17758067 0.13912173 0.17696796 0.09601192 0.11015301
0.19640559 0.13927369 0.13526689 0.13658395 0.23693119 0.18672718 0.1949488 0.12303392
0.14290532 0.27052477 0.14839822 0.12824167 0.13568605 0.0988993 0.1749262 0.23352991
0.1686812 0.15840797 0.17033799 0.16949463 0.20774424 0.10649288 0.13921319 0.16392954
0.168461 0.14904343 0.1921476 0.1479994 0.13183598 0.14290263 0.18941438 0.16622679
0.20363566 0.15901895 0.12192959 0.21607563 0.13807724 0.16269581 0.13394819 0.13854048
0.13920172 0.2258833 0.15643996 0.1537676 0.22510968 0.20782308 0.17390528 0.18243939
0.1223062 0.18968138 0.114244916 0.1395602 0.105556786 0.16241537 0.16570987 0.22392996
0.19766958 0.11847896 0.15333867 0.19552633 0.15485202 0.19414268 0.1543284 0.13652235
0.1549168 0.19793953 0.12486657 0.15151533 0.15934427 0.15087558 0.14351119 0.13650896
0.097319424 0.15140884 0.15502194 0.19651888 0.16790843 0.15428701 0.13554837 0.11959911
0.15771419 0.15961522 0.14434317 0.094417475 0.20824118 0.17915104 0.11682368 0.26221782
0.1621457 0.1451999 0.12765254 0.16907267 0.150238 0.13915133 0.16186157 0.20599134
0.22573413 0.07511567 0.1521708 0.22544113 0.17630407 0.18329012 0.13992915 0.15320554
0.12961216 0.15199414 0.18752988 0.07437195 0.14331903 0.17539372 0.12333431 0.14472999
0.067364514 0.22482201 0.17625022 0.1674637 0.07132979 0.0594239 0.13066934 0.13251536
0.16051258 0.18295634 0.18041092 0.1756703 0.16338184 0.16508478 0.148883 0.20237352
0.20681271 0.2338039 0.10922853 0.15578716 0.13297515 0.11244292 0.21654645 0.12907766
0.17887917 0.076953426 0.10996636 0.17471206 0.14387667 0.19776271 0.21083069 0.2774507
0.10963178 0.15413891 0.12880455 0.0884897 0.16440137 0.17931396 0.16030154 0.16782737
0.19697979 0.18268761 0.13177438 0.11421805 0.13598152 0.11165738 0.094604574 0.13255808
0.1501125 0.124954686 0.10337644 0.12762508 0.16101281 0.12689814 0.16717982 0.13360864
0.13196734 0.15486555 0.21355172 0.12171335 0.13851196 0.124030024 0.14302623 0.1358153
0.20200978 0.15679094 0.19418411 0.15106685 0.15096956 0.13181591 0.16931935 0.13124657
0.13661443 0.19002302 0.13430348 0.16359353 0.1915007 0.06326238 0.19785373 0.16494943
0.2176032 0.07516896 0.1536325 0.16311622 0.17482503 0.14780359 0.20526414 0.17921162
0.15763247 0.20737982 0.17710298 0.1647815 0.124042965 0.0933435 0.29599747 0.17787923
0.082535535 0.058669902 0.14519016 0.115699925 0.13761176 0.15446948 0.18689369 0.15360425
0.18478951 0.12195846 0.18482201 0.15799063 0.14010979 0.11010409 0.15716293 0.1499098
0.16485621 0.09923799 0.1892892 0.15102416 0.21299912 0.11599465 0.114475965 0.17072278
0.14774665 0.08668864 0.2144724 0.10376346 0.20831554 0.16119985 0.12957367 0.21200863
0.103577495 0.13282095 0.1524048 0.15628643 0.16338605 0.12737982 0.12862234 0.12161359

fc2.fcConv.0.weight f4 [300, 300]
00000000: bcaf e7bd 24ce b23d 61f0 003d 0db8 8cbe
00000010: e9a9 493b 9df4 25bc 05b4 a93e c954 fbbd
00000020: 4b42 8d3d d65a fa3d 6a3c 843c 172b 2dbd
00000030: 1a42 4cbd 3fdc 3c3e 8195 f0bd bbaa a3be
00000040: 01fa 473e 467e 033d e9d3 a23d 78f6 98be
00000050: 3a80 1f3d 4c57 00bc 7d94 bbbe 710a f4bd
00000060: 40d0 a13c 8d0a f23d 9b57 a2bb 0e2c 823c
00000070: 9bef 193c 2491 c3bd 1ddb 9bbe b051 6b3b
00000080: 2f50 b6bc 4730 1e3d 1bd4 31be 61f6 8fbd
00000090: cab0 373e eca7 8abe 7d48 183d a75b 72be
000000a0: e480 a23c 6bf5 523d 09ed 9b3d 3fa7 48be
000000b0: 851f 4c3d 71ad 79bc f397 a8bd 5e5e e33d
000000c0: 7f60 00be cd4b 013e b35a 01bd bbdc a23d
000000d0: 00dd 513e f05a bdbd 6024 11bd 9272 953d
000000e0: ec25 95be b10f a83e edac 2e3e c367 f3bc
000000f0: 9c5c 42bc f9a4 f13d c135 73bd 77c6 c0bd
00000100: 7682 fb3c 0f19 05be a02a 4fbd 6c0d e63d
00000110: ffca f9bd 7393 7d3b 124b b2bd 756d 76be
00000120: ce7c 2cbe 853d 2e3d 85a4 3bbd a593 86bd
00000130: d242 8cbc 1757 2cbc c4a1 343e b130 153d
00000140: 1235 313e 3fc3 eebc 1ca1 2d3e 97dc 273e
00000150: f244 c53d fb67 033e 337b b9bd 7f55 9cbe
00000160: 74a2 863e 0c2c 4ebd 36f7 13bd a041 4e3c
00000170: a15d 3dbd 4305 c43c c6d9 a6bd b29f 1bbe
00000180: 4cc0 c03d b814 2d3d ef8c d5bd af32 30bd
00000190: fcf3 943e f9dd 1b3d 2e72 033c 45a7 18be
000001a0: 5b24 c9bc eb0a 603d 1f72 0dbd 90f6 fe3d
000001b0: f019 223e 3901 91bc ea6f 92bd ac16 1ebe
000001c0: 8cc4 efbd f04a a33c 1d46 77bd ef50 c5bc
000001d0: 3411 44bc ec98 0b3e 4266 5c3b 6597 9abb
000001e0: 12e6 42bd 2f6c 3bbe 821e a4bc 3726 4bbd
000001f0: 4eb1 dd3c 5519 10bd 0dab 123c 97f6 33be
00000200: 1c7c e23d 5871 03bd 36b2 6fbd 9bab 363d
00000210: 0a05 b03d 3926 49bd bb96 53be e181 663d
00000220: 40f4 763d c561 ca3e fd71 99bd 6e46 643d
00000230: a338 ccbd 0232 0e3c c9b6 03bd df6f 6f3c
00000240: 5858 dc3c 9dc4 683d 6787 a93e f058 453d
00000250: 3997 6f3e dea0 8f3e 3612 83bd 7012 e4bd
00000260: 1d36 193e 9058 b63d ff5b 7d3e 70cb 183e
00000270: 816f 153e 9444 293e 16c8 7f3d bc45 133d
00000280: ba80 f3bd aa37 d9bc 260f efbd f3d6 073e
00000290: a5a5 83bc def2 203e b775 ddbc a221 d6bd
000002a0: 6844 323e fa57 763e ca8f 85bd 97b7 de3d
000002b0: c5f1 993d e1e9 45be d78a 493e 651f 213e
000002c0: 71ff 4fbe 9601 1ebe 3c53 b73c 42b8 193d
000002d0: c0aa 8fbc 8be3 663d 3df9 42bd f192 723b
000002e0: f381 173e e3a9 d4bd bf41 8f3b 246c 33be
000002f0: 8123 0b3e f9e2 4a3e d6be 0a3e 5d25 003e
00000300: bb10 283e 335c ebbb 18ce e83d 3d83 593e
00000310: f2a3 fe3c b158 c0be 7c90 293e 7f0c abbc
00000320: d27e 68bd f532 cd3b 50ea b2bd b409 fa3d
00000330: bbda a73d 049b 86be f529 413d ac1e e5bd
00000340: 1946 973d 2e29 013e 46c4 0f3e 70aa 173b
00000350: b463 32be 8f8f e43d 2eed 61bd dbe8 cdbc
00000360: 0b8c 313e dd22 94be 947c 363e 5308 043e
00000370: 8bbf a1be bc96 81bd de70 bfbb 6d70 033e
00000380: d8ba 58be da4a 0c3e 71c6 123e 23a2 3b3d
00000390: b5d7 603d 3646 bebd 5eb4 14bd 45ec 57be
000003a0: 5e6f 423e b890 153e 966c f23d 63c1 6d3e
000003b0: 3147 7c3e 9439 d03d 8cf5 4c3e cafa ac3d
000003c0: b5ec b9bc ef6d 2e3d abe2 4d3e 8c7f 083e
000003d0: 8d9a f93d 19fb ea3a d01b ac3d bd10 0c3e
000003e0: da5e 443d ed00 4b3e d4a3 c0bc a199 d6bc
000003f0: a0e0 523d 24cd 0cbe c80d 923d 2384 50bd
-0.113128155 0.087307245 0.031479243 -0.2748417 0.003077144 -0.010129121 0.33145157 -0.12272031
0.0689741 0.12224357 0.016142089 -0.04227742 -0.049867727 0.18443392 -0.117472656 -0.31966195
0.19528963 0.032102846 0.07950575 -0.2987554 0.038940646 -0.007833313 -0.36636725 -0.11916054
0.019752622 0.11818419 -0.004954291 0.015890148 0.009395505 -0.09549168 -0.30440608 0.0035906844
-0.022255031 0.03862026 -0.17366068 -0.07029415 0.17938533 -0.2708124 0.037178505 -0.23667775
0.01983685 0.05150358 0.0761357 -0.1959505 0.049834747 -0.015239106 -0.08232107 0.111019835
-0.1253681 0.12626572 -0.03158064 0.07952257 0.20494461 -0.092458606 -0.03543508 0.07297243
-0.29130495 0.32824472 0.17058153 -0.029712563 -0.0118629 0.11799044 -0.059377436 -0.09412854
0.030701857 -0.1299784 -0.05057776 0.11233029 -0.121969216 0.0038692623 -0.08705725 -0.24065192
-0.16844484 0.04253914 -0.045811195 -0.0657113 -0.017121706 -0.010518811 0.17639834 0.03642339
0.17305401 -0.029145835 0.1695599 0.16392742 0.09632291 0.12832634 -0.090567015 -0.30533978
0.26295817 -0.050334975 -0.03612443 0.012588888 -0.04623187 0.02392829 -0.08147006 -0.15197638
0.09411678 0.042256087 -0.104272716 -0.043017086 0.29092395 0.038053486 0.008022828 -0.14907558
-0.024553468 0.054697912 -0.034532662 0.12449372 0.15830207 -0.017700778 -0.07150252 -0.15438336
-0.1170741 0.019933194 -0.0603696 -0.024086444 -0.011966992 0.13632554 0.0033630286 -0.0047177547
-0.047582693 -0.18302988 -0.020034079 -0.04959699 0.027062085 -0.03518041 0.0089519145 -0.17574535
0.11058828 -0.032090515 -0.058519565 0.04459725 0.08594711 -0.049108718 -0.20662968 0.056276206
0.06029153 0.39527717 -0.07492445 0.05573123 -0.0997174 0.008678915 -0.03215674 0.0146140745
0.026897594 0.05682813 0.33111116 0.04818052 0.2339753 0.2805242 -0.06399958 -0.11136329
0.14962049 0.08903611 0.24742125 0.14921355 0.14593317 0.16530067 0.062446676 0.035955176
-0.11889787 -0.0265158 -0.11672811 0.1326559 -0.016070196 0.15717646 -0.02703367 -0.10455634
0.17408907 0.24056998 -0.06521566 0.10874861 0.07516817 -0.19327499 0.1968187 0.15734632
-0.20312287 -0.15430292 0.022378556 0.037529238 -0.017537475 0.056369346 -0.047600973 0.0037013853
0.14795665 -0.10383966 0.004371851 -0.17521721 0.13587762 0.19813146 0.1354936 0.12514253
0.16412632 -0.007182622 0.11367434 0.2124147 0.031084035 -0.37567666 0.16559023 -0.020879982
-0.05676157 0.006262178 -0.08736098 0.12208882 0.081960164 -0.26290143 0.047159154 -0.11187491
0.07386417 0.12613365 0.14039716 0.002314236 -0.17420846 0.11160194 -0.055157833 -0.025135448
0.17338578 -0.2893285 0.1782096 0.128938 -0.31591448 -0.063275784 -0.0058423122 0.12835856
-0.21165025 0.13700429 0.14333512 0.045808922 0.054893214 -0.092907354 -0.036304824 -0.21086223
0.18987796 0.14605987 0.118371174 0.23218302 0.24636532 0.10167232 0.20015544 0.08446272
-0.022695879 0.04258531 0.20105998 0.13329905 0.12187681 0.0017927616 0.08403742 0.1367826
0.04794202 0.19824572 -0.02351562 -0.026196303 0.05148375 -0.1375013 0.07131535 -0.050907265

fc2.fcConv.0.bias f4 [300]
00000000: a6e0 78bd 4524 c2bc 0d50 8fbc ace7 d03d
00000010: ffbc 12bd ddde 7e3c 4cc1 623d 8d9e 733d
00000020: 9155 24bd 5d42 a23b c9d2 8fbd 887e 863b
00000030: f21f 08be e0f5 7bbd b6cb d0bd c614 ab3b
00000040: d6b2 86ba 01d1 66bd c954 63bd f527 013e
00000050: 526f 40be a2c1 4ebd 131b 98bc ff39 b83d
00000060: 1d7a b63d cefd d9bd bedb 10be e488 7ebd
00000070: b368 1d3d c980 303d b9d3 df3d 2c24 c7bc
00000080: 63ef 363c f52d 0a3d e666 b73c 1e5a 02be
00000090: 4670 7d3c 9213 993d 3112 b1bd 2c0e 54bd
000000a0: f8f2 f73d 0399 c53c 236c f43d 6d04 c4bd
000000b0: d083 a5bc 6599 bc3d 83f1 22bd ba80 b23d
000000c0: 5c2b 44be 7b7a 0dbd 32ea 46bd dade 113e
000000d0: 3e7f 8e3d d6d5 8cbb 5d89 223b 1064 463d
000000e0: 216e 20bd 41d3 72bd ab9a 6b3d f0e7 7a3c
000000f0: 6fd3 333e a222 47bd 8ba3 babd 6a83 a6bc
00000100: d6a1 bd3d 388b 1dbd 8643 683d 464c 023e
00000110: 10c6 843d 3b81 dbbd 9766 503c a084 ab3c
00000120: a665 15bd 3eaf e4bd 96b7 06be 7ec0 543d
00000130: 7f74 103c 2989 d0bd da3b 833d 0601 6abd
00000140: d16c 1abc 9dc9 843c 488a 44bd a3a2 72be
00000150: 46a8 a8bd 79f7 263e 786a 1abe 7797 9e3d
00000160: 1a2f 7abd 2e27 3b3c fc6c 0bbe d260 6e3d
00000170: e34b a9bd 455c 6cbd e264 78bd 23f8 803d
00000180: 2c8c 80bd b6f9 213c 9e08 743d cc5a 22be
00000190: a516 183e 487d 053d 519c 21bd b000 013d
000001a0: 4e1c bc3c fa71 9a3d 88c7 143d b57a 713d
000001b0: 97d4 d73c f8b4 3b3d 2f05 fe3b 42cd 713c
000001c0: d4cd f03d b767 a3bc dd31 0a3d 642e 80bd
000001d0: 2499 093d c49e 7b3b ea13 edbd 4c19 05bd
000001e0: 2af4 0e3d 20c5 2dbb a109 09be 0ad4 8d3d
000001f0: 6bf7 cebc 34d4 85bd 1d12 1cbd acfd dbbd
00000200: 5fba b03c cfef 453c 41d4 70bd cdcf 213d
00000210: 4c34 03bd 6b4f 8cbd 50a6 bebb 9c3b c83c
00000220: 79ef 4abd 85d3 abbc ec88 313d dd15 ae3d
00000230: 1853 823e 4ca0 f2bc 8ee4 d4bd c128 2f3d
00000240: 6da6 e83d 62fa 453d af9a 85ba 1591 123d
00000250: 4720 8abd 076b a1bc e197 3a3d 1948 623d
00000260: d409 11be 405d 41bd b094 18bd d35c 3fbd
00000270: 791f 9c3d ece0 ecbd d050 173d 3181 b7bd
00000280: 7a71 26bc 47cf 37bd 8b04 c4bb 5012 d5bd
00000290: 6c8c 12bd 540e b73d fd4b 34bd 3838 003d
000002a0: 2fc9 863d 5ae0 8ebb e8ad 3dbd 7b8d b8bc
000002b0: ca15 d33c 7d53 35be 70f3 5f3d e13b 00be
000002c0: e093 6a3d 58e9 d9bc f1bf 6dbd 0378 c9bd
000002d0: 1dc1 db3d 1947 053e 188c 803c 96b6 093d
000002e0: 31fe 803d ce5e 5d3c abe9 cd3d eb0a 1abd
000002f0: d8ae f3bd 7827 e2bc c78c ae3d df51 523d
00000300: e8a6 333c 4021 3c3e 9c59 233b 5231 bdbd
00000310: f3c5 60bc d364 453e 3981 833d 1ba7 c63d
00000320: 876e 67bd bf31 693d 793f d2bd 57eb f43c
00000330: c32b 04be 60ed 62bd 7b22 c2bb 48b4 253e
00000340: 3d4d 3f3d 87e1 16bd 4343 dabd 6117 dcbc
00000350: 1c5b a93c ceb4 35bc 860b aa3d 0550 883c
00000360: 2aac fcbc 2653 853d 2a33 fa3d d6ce 783d
00000370: 5299 f0bb a91f 173d f6a9 da3c 320e b33d
00000380: 8c9f dabc 0c5e 03be bc87 f33d 1366 8e3c
00000390: 4743 89bd 14b9 a9bb b966 ef3b 23be 9b3d
000003a0: b27b bcbd dcad 673d 2d9c 86bd 6f76 413d
000003b0: 87c8 0d3c 8950 193d ffb9 88bd ec62 9dbc
000003c0: 41b8 27bd 6101 fcbd 9b4f e63c 3a46 14bd
000003d0: 163e 503b a79a 753d 9570 b53d ef47 86bc
000003e0: d792 34bc 7ac8 e4bc 32d8 67bd 0666 16be
000003f0: 834e ef3d 2740 9dbd 5107 403e 8524 eb3c
-0.060761116 -0.023698935 -0.017494226 0.10200438 -0.035824772 0.015556064 0.055360124 0.059477378
-0.040120665 0.004951759 -0.07022626 0.004104439 -0.13293436 -0.06151378 -0.10195105 0.0052209822
-0.0010276686 -0.056351665 -0.05550078 0.12612899 -0.18792465 -0.05047763 -0.018567597 0.08995437
0.0891001 -0.106441125 -0.14146325 -0.062142268 0.038429927 0.04309157 0.10929055 -0.02430924
0.011165473 0.033735234 0.022387933 -0.1272969 0.015468663 0.07474436 -0.08646048 -0.051771328
0.121068895 0.024120813 0.11934688 -0.09571157 -0.020204455 0.09208945 -0.039781105 0.08715959
-0.19157165 -0.034540635 -0.04856319 0.14245167 0.06957863 -0.004297952 0.0024801113 0.04843527
-0.039167527 -0.0592835 0.05752055 0.015314087 0.17561124 -0.048617013 -0.091132246 -0.020326335
0.092593834 -0.038462847 0.05670502 0.12724409 0.0648309 -0.10718008 0.012719772 0.020937264
-0.036473893 -0.11166237 -0.1315597 0.051941387 0.008816837 -0.10182411 0.064079 -0.057129882
-0.009425358 0.016209418 -0.047983438 -0.23694853 -0.082352206 0.16305341 -0.15079677 0.077437334
-0.061080076 0.011422915 -0.13615793 0.058197804 -0.08266427 -0.057705183 -0.060643084 0.06297328
-0.06276736 0.009886196 0.05957853 -0.15854949 0.14852388 0.03259018 -0.039455716 0.031494796
0.022962715 0.075412706 0.0363231 0.058954913 0.026346488 0.045826882 0.007752083 0.01475841
0.117580086 -0.019946916 0.03373896 -0.06258848 0.033593312 0.0038394192 -0.11576064 -0.032494828
0.03490082 -0.00265152 -0.1338258 0.06925209 -0.025264462 -0.06534615 -0.03810321 -0.107417434
0.021573244 0.012081101 -0.05879617 0.039504815 -0.032032296 -0.06851085 -0.005818166 0.024442486
-0.049544785 -0.020974884 0.04334347 0.08500264 0.2545402 -0.029617451 -0.10395156 0.042763475
0.11359868 0.048334487 -0.0010193194 0.035782892 -0.06744438 -0.019704355 0.045555 0.05524454
-0.14163905 -0.04720807 -0.037251174 -0.046719383 0.076231904 -0.11566338 0.036942303 -0.08960188
-0.010158891 -0.04487541 -0.005981987 -0.104038835 -0.035778448 0.0893828 -0.04401778 0.031303614
0.065813415 -0.004360241 -0.046308428 -0.0225284 0.025767226 -0.1770763 0.05467552 -0.12522842
0.05726993 -0.026600525 -0.058044378 -0.098373435 0.10730193 0.13015403 0.015691802 0.033621393
0.06298483 0.013511373 0.10054334 -0.03760807 -0.11898583 -0.02760671 0.08522945 0.05134761
0.0109650865 0.18372059 0.0024925238 -0.09237923 -0.01371907 0.19276743 0.06421132 0.096998416
-0.05650189 0.056932207 -0.10266013 0.029897375 -0.12907319 -0.05540216 -0.0059245205 0.16182053
0.04670452 -0.036836173 -0.106573604 -0.026866617 0.020673327 -0.0110904705 0.08302979 0.016639719
-0.030843813 0.0651 0.1221679 0.06074413 -0.007342496 0.036895428 0.026692372 0.08742942
-0.026687406 -0.12828845 0.11891124 0.017382657 -0.06702285 -0.0051795337 0.0073059467 0.07604625
-0.092032805 0.05656229 -0.06572757 0.047232088 0.0086537665 0.03743032 -0.06676101 -0.019212209
-0.040947203 -0.123049505 0.02811413 -0.036199786 0.0031775287 0.05996194 0.08859364 -0.016391722
-0.0110213375 -0.027927626 -0.056602664 -0.14687356 0.11684897 -0.07678252 0.18752791 0.028703937
